runs/baseline_best.pt (torch, 92477 bytes, 6 tensors)

conv1.weight f4 [16, 3, 3, 3]
00000000: 1487 1b3e c105 283e f5af 22bd fbc6 3a3e
00000010: be10 12bd fa9e 373d 8aba b0bd 5845 f33d
00000020: d429 333e e4f9 11be 7191 273e 3848 073d
00000030: 784b 0f3e dd7d c53c 474f b93d 92f1 e5bc
00000040: f68f 153e 3b90 dc3c 2f4b babd 20ae 3f3d
00000050: 0606 b9bd e7ac babc cf8f a0bd cd2c 013e
00000060: da3c 1abe 91b8 b4bd 49a1 5dbd 1d50 03be
00000070: 0048 053c 62d7 4fbe 5860 273e 5d2f 35be
00000080: 8131 0e3e e471 a43c a94d 9abd e180 de3d
00000090: 8a0b c93c 95e6 1a3e 2d80 833c 3ac3 8bbd
000000a0: 02b9 393d d549 72bd dd35 983d e10a 2a3e
000000b0: 724e d83d c2b5 c6bd 73f7 cd3d 682d c03c
000000c0: 0dc3 af3d 7e03 06be 3b31 51be 9726 b4bd
000000d0: 0dc3 25be 6942 163e bbc2 2c3d a4fa 833d
000000e0: f950 2b3d b68f 83bc bc10 0a3e 7b77 1dbe
000000f0: 0ce1 e0b9 6051 12be be85 273d 8640 a8bd
00000100: c3dc 2c3d 38db 77bd 796e 123e ab20 06be
00000110: 0605 0abe 5196 04be c77f 203e ed12 2b3d
00000120: 04f3 373e 85d8 26be 9696 4abe 6cb5 1abe
00000130: 8c2a 09be 41ee 873d cba2 8b3d a655 203e
00000140: 40eb debd a16e 0abe 41b4 d63d 4238 7cbd
00000150: 2486 f63d c0ba 30bd f0e0 0b3e e3b3 17be
00000160: 760b c9bd 2a34 ae3d 884c 393d 4ec2 24bd
00000170: aa08 183e d1f5 153e 5413 04be cd2f 79bd
00000180: 3e03 413e 45d5 65bd 9663 b3bc 6603 47be
00000190: e8af e6bd 2800 903d ffc4 dcbc 91a3 13be
000001a0: d1ba 033d 96f6 09be 3524 30be f8d6 9bbd
000001b0: 044e 49be 20ee 1bbe a033 5e3e ad7c e13b
000001c0: ab45 d93c 5742 58be 32f4 1cbe 53ca c1bd
000001d0: d379 d7ba e742 40be cc32 d4bd 7110 a1bd
000001e0: 0435 9abc 8080 c2bd c2b9 1dbd 2ead 17be
000001f0: e803 1ebe 6734 0abe d429 99bd 89a8 27be
00000200: 3d53 403e ceaf 44bd 2866 183e d83c 283d
00000210: c37d 30be 7d22 ee3d b7a5 8fbd 7e5c 98bd
00000220: 1de3 23be a8bf 43be 86ec 5e3d ce5c 2dbd
00000230: 2180 973d 669f 22be f8e3 0e3e 52d2 11be
00000240: eb74 c6bc 32ee 463d a226 dc3d b0f1 273e
00000250: 34fb 3b3e 1654 11be c244 653d f9cc 98bd
00000260: 7da5 53bc b837 0cbe 3407 393e ac5c 09be
00000270: dab2 e13d 0215 993d 62ce 8e3d 9079 c7bd
00000280: 6188 383e 78ad 453d 056d 2c3c 7475 3bbe
00000290: 003b 8f3d f8ad b1bd a391 14be cf8f 003e
000002a0: e683 15bb eb57 25be f67d 18be 037c fe3b
000002b0: 92a3 013e 40d4 f1bc 4559 f8bd 7790 92bd
000002c0: 8a91 18be 1d56 853d 1122 173e e6c1 3fbe
000002d0: 3437 723d 7e95 ed3d dbf1 573d c507 97bd
000002e0: 5c70 d13d 75b0 da3d 166e 923d 13f2 1cbd
000002f0: 24ca 4cbd 8485 853c 786e 20bd 514d 84bd
00000300: 1c19 fd3d 8c04 2c3e 44b2 bebc 9049 3abd
00000310: 2e1b 3b3b 9acd 5cbc 15f5 4b3d 2b5f 703d
00000320: fcfa 35be 481f 8cbd 0672 2f3e 30ab a43d
00000330: ab7e 7bbb 4829 e6bd 5273 edbd 2828 2bbe
00000340: fd0c 5ebd a69a 983d 82f5 0a3e ab22 d13d
00000350: cfcf 26be e6a6 d8bd 207e 95bc f5b2 4d3e
00000360: 193f 593d e9f3 a0bc 21bf e63d a91c bfbd
00000370: 8561 12be 39b5 ff3d 2091 14be 8c61 d0bd
00000380: c984 7bbe 6f1c 1b3e a2ad 2f3e 3810 d63d
00000390: f84a 11be 22b5 45be ada6 1cbe 51f4 cb3d
000003a0: ce70 443d eafc ec3d eab9 083e 9eba af3d
000003b0: edff 263d e087 03be 9203 0abe 9528 18be
000003c0: a184 8f3d 494f c6bd b762 35bd 7469 16be
000003d0: 24c3 92bd 1f57 34be c20e 1bbe f624 173d
000003e0: efc2 b5bd fc94 ce3d 4953 a4bd f0c3 26be
000003f0: e0c2 6abc e8e0 98bd 68e2 17bd 6817 1fbe
0.15188247 0.16408445 -0.039718587 0.18239968 -0.035660498 0.044829346 -0.086293295 0.11878461
0.17496425 -0.14255482 0.16364075 0.033027858 0.13993633 0.024107868 0.09048324 -0.028069291
0.14605698 0.026924243 -0.090963714 0.046796918 -0.09034352 -0.022787524 -0.07839929 0.12614746
-0.15062276 -0.08824266 -0.05410889 -0.1282353 0.008134842 -0.20297006 0.16345346 -0.17693849
0.13886072 0.020073839 -0.07534344 0.108644255 0.024541635 0.15127023 0.01605233 -0.06824346
0.045342453 -0.059152443 0.074321486 0.16605712 0.10561837 -0.09702636 0.10056963 0.023459151
0.08582125 -0.1308727 -0.20428936 -0.08796423 -0.16187687 0.14673771 0.042177897 0.0644429
0.04182527 -0.016059738 0.13482946 -0.1537761 -0.00042892282 -0.14288855 0.04089903 -0.08215432
0.042202722 -0.060511798 0.14299954 -0.130984 -0.13478479 -0.12947966 0.15673743 0.041766096
0.17963797 -0.16293533 -0.19784006 -0.1510827 -0.13395137 0.0663724 0.0681816 0.15657672
-0.10884714 -0.13518764 0.104835995 -0.06157709 0.12037304 -0.04314685 0.13660026 -0.14814715
-0.09816639 0.08506043 0.045239 -0.040224366 0.14847055 0.14644553 -0.12897998 -0.060836602
0.18848893 -0.056111593 -0.021898072 -0.1943489 -0.1126402 0.0703128 -0.026949404 -0.14417864
0.032160584 -0.13472971 -0.17201312 -0.076093614 -0.19658667 -0.15227556 0.21699381 0.0068813176
0.026522478 -0.21119057 -0.15327528 -0.094624184 -0.0016439505 -0.18775521 -0.10361251 -0.07864464
-0.018824108 -0.09497166 -0.03850723 -0.14812157 -0.15431178 -0.13496552 -0.07478681 -0.16372885
0.18781753 -0.048019223 0.1488272 0.04107365 -0.17235474 0.11627672 -0.070140295 -0.074395165
-0.16004606 -0.1911608 0.054424785 -0.042324834 0.073974855 -0.15881118 0.1395415 -0.14240387
-0.024225673 0.048567005 0.10749556 0.1640079 0.18357545 -0.14192232 0.055973776 -0.074609704
-0.012917873 -0.1369313 0.18069154 -0.13414258 0.11020441 0.0747471 0.06972958 -0.09739983
0.18020774 0.048261136 0.010524039 -0.18306524 0.06993675 -0.0867576 -0.14508681 0.12554859
-0.0022814213 -0.1614682 -0.148918 0.007766248 0.12660053 -0.029520154 -0.12126402 -0.07156461
-0.14899269 0.065105654 0.14759089 -0.1872631 0.059134677 0.11600779 0.052720886 -0.07374529
0.10226509 0.10678188 0.071499035 -0.038316797 -0.049997464 0.016299017 -0.03916785 -0.064600594
0.12358305 0.1679861 -0.023278363 -0.04548031 0.0028550136 -0.013476754 0.049794275 0.05868451
-0.17771524 -0.06841904 0.1713334 0.08040464 -0.003837506 -0.112383425 -0.11594261 -0.16714537
-0.054211605 0.07451372 0.13570216 0.102116905 -0.1629021 -0.10578708 -0.018248618 0.20087798
0.05303869 -0.019647555 0.11266924 -0.09331638 -0.14295013 0.12485737 -0.14508486 -0.101748556
-0.24562372 0.15147565 0.1715608 0.10452312 -0.14188755 -0.19307378 -0.15297957 0.09958709
0.04795914 0.11571677 0.1335217 0.08580516 0.040771414 -0.12844801 -0.13477924 -0.14859231
0.07007719 -0.09683091 -0.044283595 -0.14688665 -0.07166126 -0.17611359 -0.15142348 0.036900483
-0.08875071 0.1008701 -0.08023698 -0.16285682 -0.014328688 -0.074647725 -0.037081152 -0.15536273

conv1.bias f4 [16]
00000000: 51bb c6bd 022f 0e3e e334 38be 8182 283e
00000010: 863a c9bd 042b 0eba d920 bcbc 4da5 793d
00000020: 4f59 8fbd a240 1d3e 4916 9c3c a521 223e
00000030: 8c85 303e 2c9d abbd 0921 0fbe d670 1d3e
-0.097036965 0.1388512 -0.17988925 0.16456033 -0.098256156 -0.000542328 -0.022964882 0.06094866
-0.06999456 0.15356687 0.019053595 0.15833147 0.17238444 -0.083795875 -0.13977446 0.15375075

conv2.weight f4 [32, 16, 3, 3]
00000000: 3ffc 0e3d 1aee cabd a366 23bd b4fc f6bd
00000010: 5bbf e9bd 6902 e0bc e576 ecbb f075 9abc
00000020: 025b 4fbd 829d 8e3d ec59 cc3a a0dc 6bbd
00000030: 6195 ccbb e74e 713c a432 d83c 1993 69bd
00000040: 18db e33c 7c94 29bd 43c0 86bd 2db8 5dbd
00000050: 1f2e 7f3d 2f26 9d3d df7f 743d 4fa7 223d
00000060: 4ff7 7c3d ec1b d8bc 7cb5 5bbd 3461 68bb
00000070: e28d 86bd 404d 93bd 9ac5 3bbd 5630 5e3c
00000080: ed8f 3a3d acbe 87bd e745 84bd 1ee3 ab3a
00000090: 711d afbc cf79 2dbd e840 663d 076e 64bc
000000a0: 3544 743d 6d76 8f3d a9e9 4c3d 8c10 873c
000000b0: 7df6 143c a059 f03c 468a 8d3c a276 b73c
000000c0: 69ee 773d ca5d d03d 0558 1ebb 44cd 6fbc
000000d0: d4ad 9ebb 0afc 0dbd 483b a63d 9ade 033e
000000e0: 80d1 013e 718e d83d 7ab0 ac3b 5501 ca3c
000000f0: e1ce 223d b63a 333d ef5b 813d 34ba 08be
00000100: 3c76 0fbd eabf 04be 075d e6bd 1a3e 07be
00000110: 08d5 9b3b d372 08be 022f f83b 66e1 81bd
00000120: 96fa b53d 7505 1d3e 5bd6 c73d 15b9 8f3d
00000130: 85da 943d b1f4 57bd 53e7 803d 02da 3a3d
00000140: 0b9d 393d e375 8c3d 5e37 803d b26d 6e3c
00000150: c07d 813d fa13 093e 1c05 fc3d c763 873d
00000160: c6bd e5bc 5158 923d e453 d2bd ca7c e1bb
00000170: c98c f1bd 6e4a c5bd 0886 abbd e064 07bd
00000180: 4323 bf3b 3ec6 07bd f39d 69bc a508 9d3d
00000190: 10a9 a03d 22a3 a6bc b32b 11bc 14f5 423d
000001a0: 9618 93bc 4b6f 283d a188 9fbc 5e83 7cbd
000001b0: 764d 963d 6c8d 883d 28b6 b93d 20a3 083e
000001c0: b019 f23d 3232 103e a036 663d 18ee 03bc
000001d0: c0f5 473b 292e 9fbd 13d4 aabd dd00 f2bc
000001e0: b78e 20be 018b 17be 936e f1bd e4fa 25be
000001f0: 95a6 00be cc82 00bd 0c80 02bc 4b57 ccbd
00000200: d1f9 9abd 3bac 22bd 7c4c dbbd 7086 c1bd
00000210: 4c08 08bc 5d39 ebbd 8091 63b6 b89c 133e
00000220: 18a3 8f3d 5665 a83d 7151 1e3d ca42 953d
00000230: 996b af3d 7543 d83d 15e8 d33d 298a 1b3e
00000240: aded 98bd fdc1 fdbb 5287 55bd b7b8 96bd
00000250: 9eaf 5cbc 9c7f a5bd d8aa 543d 0fec 883b
00000260: ef74 50bd e525 3a3d 6abe 9bbd d57f f1bc
00000270: 78c3 51bc 19c7 88bd a080 49bd fc03 15bc
00000280: 90ee 8b3d c48e af3d 42f7 703d 9043 3dbd
00000290: a8b7 3dbd 95c4 a73d 37ad f73c dd8a 303c
000002a0: f6a1 c03c 89bd 7bbd 0e9d 9ebc 6105 a43d
000002b0: ac18 8bbc 3047 3ebc f635 83bd d86e 19bd
000002c0: 649b cc3b 3785 6abd a34a 82bc bef9 ac3c
000002d0: c0be 83bd f3f9 593d 2f64 25bd 899c 20bb
000002e0: 3344 323d 2a49 e33d 3b3d 5a3c acdb ac3b
000002f0: d214 37bd 1051 cfbc c726 63bd dcc6 f3ba
00000300: 42b2 0c3d f51f 79bd c1fa b83d e9ff 8a3d
00000310: 677e 87bd 883f c4bc 770b 7d3d b758 743c
00000320: e856 983c 14c4 1fbb 313d ca3d 7585 90bc
00000330: 3c2c d63d 5210 e93c 12e8 253d 3639 9d3d
00000340: d736 1dbb c964 0fbd edbd 8bb8 d4be a63d
00000350: 973e 46bd c39c e63c ef2d 92bd 1307 543d
00000360: 8bf6 153e 0bdc ea3d 8b86 143e 7c06 413d
00000370: e0cd bd3d 9443 a8bc e0a1 fc3c f312 9a3d
00000380: e975 ea3d 7387 6a3d 7f49 3fbd 6e42 a83d
00000390: 98b6 a1b9 f2fd 64bb a806 70bd 5925 60ba
000003a0: bd4b 8b3d d8b3 d63c 4ec3 a7bc 0d82 483d
000003b0: 8a47 14bc 8838 d43d 6196 2dbd ccca f63b
000003c0: a9ba 04bd 2bc9 92bb 7425 473d c845 c63d
000003d0: d4f2 fd3c 990d ca3d c4c4 0a3d 86eb 863d
000003e0: 735e ad3d 0668 b13d 6081 f1bc 6850 c03d
000003f0: 8beb d13c d504 62bd 377c 7dbd 6ee1 adbd
0.03490853 -0.099086955 -0.039892804 -0.12059918 -0.11413451 -0.0273449 -0.007216322 -0.018855065
-0.0506239 0.06963636 0.0015590764 -0.05758345 -0.0062433933 0.014728284 0.026391335 -0.05702505
0.027814433 -0.04140137 -0.0657964 -0.05413072 0.062299844 0.076732986 0.05969226 0.03971034
0.06175929 -0.026380502 -0.053639874 -0.0035458328 -0.06570031 -0.07192469 -0.045842744 0.013561329
0.045547415 -0.06628165 -0.06458645 0.0013113951 -0.021376343 -0.042352494 0.056214243 -0.013942248
0.05963536 0.0700501 0.050027523 0.016487382 0.0090919705 0.029339612 0.017277848 0.022395436
0.0605301 0.10174139 -0.002416135 -0.0146363415 -0.0048424993 -0.03466419 0.08116776 0.12877885
0.12677574 0.105740435 0.005270061 0.024658838 0.039748076 0.043757163 0.06316363 -0.13352281
-0.035024866 -0.12963834 -0.11248212 -0.13207284 0.00475562 -0.13325052 0.007573963 -0.063418195
0.08885686 0.15334113 0.09757682 0.070177235 0.07268242 -0.05272359 0.062941216 0.045618065
0.045315783 0.068584226 0.062605605 0.014552521 0.06322813 0.13386527 0.12305662 0.06610828
-0.028044593 0.07145751 -0.10269907 -0.006881331 -0.11794431 -0.09633337 -0.08375174 -0.033055186
0.005833061 -0.033148043 -0.014258849 0.076676644 0.07844746 -0.02034146 -0.008860516 0.047597006
-0.01795606 0.041121762 -0.01947433 -0.06164872 0.07338993 0.06667599 0.09067947 0.13343477
0.11821306 0.14081648 0.05620444 -0.008052371 0.0030511469 -0.07772476 -0.08341231 -0.029541427
-0.15679441 -0.1479912 -0.117886685 -0.16208988 -0.12563546 -0.031374738 -0.007965099 -0.09977587
-0.0756718 -0.039715033 -0.107079476 -0.0944947 -0.008302759 -0.114855506 -3.3910328e-06 0.14415252
0.070135295 0.08222453 0.038651887 0.0728813 0.085654445 0.105597414 0.103470005 0.15189423
-0.07467208 -0.0077440725 -0.052131005 -0.0735945 -0.013469605 -0.0808098 0.05192074 0.004178531
-0.050892767 0.045446295 -0.07604678 -0.0294799 -0.012802951 -0.066786 -0.049194932 -0.009095188
0.068326116 0.08572152 0.058829553 -0.04620701 -0.046317726 0.08191792 0.030233962 0.010775295
0.023514729 -0.06146005 -0.019361999 0.080088384 -0.016979538 -0.011613652 -0.064067766 -0.037459224
0.00624411 -0.05725595 -0.01590473 0.02111518 -0.06432867 0.053216886 -0.040378746 -0.0024507365
0.04352207 0.11097939 0.013320263 0.0052752104 -0.04469759 -0.025307208 -0.055456903 -0.0018598693
0.034349687 -0.060821492 0.090322025 0.06787092 -0.06615906 -0.023956075 0.06177851 0.014913729
0.018596128 -0.0024378346 0.098749526 -0.017641762 0.10457656 0.028450165 0.040504523 0.07676928
-0.0023988986 -0.035008226 -6.663413e-05 0.08141866 -0.048399534 0.028150922 -0.071376674 0.05176456
0.1464483 0.11467751 0.14504449 0.047125325 0.09267783 -0.020540036 0.030838907 0.075231455
0.11448271 0.05725808 -0.04670095 0.082157955 -0.00030844356 -0.0034941402 -0.058600098 -0.0008550487
0.06801555 0.026208803 -0.02047887 0.04895215 -0.009050259 0.10362345 -0.04237974 0.0075314995
-0.032404575 -0.0044795475 0.048619702 0.096812785 0.030999579 0.09865875 0.033879057 0.06587891
0.084652804 0.08662419 -0.029480636 0.09390336 0.025625011 -0.05518039 -0.06188604 -0.08490263

conv2.bias f4 [32]
00000000: ddbe 30bd 2240 033d 6492 12bc b181 0abd
00000010: ea6b 29bd 6163 0f3c c478 acbd f3f8 eb3d
00000020: 4aab e9bb 3ed2 713c c989 b13c cc88 ffbc
00000030: e700 e53c d51c 57bc a5f2 9d3c 30aa b1bd
00000040: c08a b23a a6cc a93c 4ce4 f23b 614b 353c
00000050: d8af b23c 104b f53d 4f1f 953d 3891 29bc
00000060: c05d 8bbb 0d0a 92bd bb1d adbd d7f8 19bd
00000070: ff24 1c3b b942 74bd c32a 89bd 4d19 793d
-0.04315077 0.032043584 -0.008946035 -0.03381509 -0.04136268 0.008751721 -0.08421472 0.11522093
-0.007131015 0.014759598 0.021672146 -0.03119316 0.027954532 -0.013129433 0.019280741 -0.08675039
0.0013621673 0.020727467 0.007412469 0.011065335 0.021812364 0.11977208 0.07281362 -0.010349564
-0.004253119 -0.07130823 -0.08452936 -0.037590828 0.0023825762 -0.059633944 -0.06697609 0.060815144

fc.weight f4 [2, 8192]
00000000: abf2 b63b 70f3 b7ba 2855 223d bd3e 8b3d
00000010: f605 953d 4eda b63d aecf a53d cf57 e63d
00000020: 59c7 983d d2de a93d 5037 883d 8365 413d
00000030: 4845 de3c 8aff 483d f1a5 b1bc 2281 d0bc
00000040: d5bd a43d 8417 c23d ffa7 8a3d 22d6 6b3d
00000050: 205a 4b3d 6324 823d d778 663d 0476 a33d
00000060: 2673 6b3d e337 4c3d 8bc3 2c3d baef 5b3d
00000070: 3553 883d a43f cd3d 1580 2a3d 0fe6 3bbc
00000080: 3d3c 973d 41fd 7a3d c9fe 463d 05a7 263d
00000090: 8de3 653d 8c73 103d dcdb 2e3d 57fa 223d
000000a0: ba23 0e3a a088 993c f00d 9d3c ad51 b83c
000000b0: 95dc 1e3d e238 733d 4c55 983d 9e54 14bc
000000c0: 0914 ba3d 052f a13d 06f6 3f3d 78c1 363d
000000d0: 257c 1e3d fdac b93c 3bf5 2b3d 0d88 c83c
000000e0: db9c a8bc 8958 29bc b200 b03c c31c 333c
000000f0: 4a30 b53c 4e5c 0a3d 1293 943d a779 ddbb
00000100: 26f1 b63d 0e69 863d 8edb 9b3c ae6d 013d
00000110: 92d1 2b3c 6e89 4e3c 094d a83c 904a 0e3b
00000120: 5aab 723b ecd2 3fbc 3b17 523a 8de7 4bbc
00000130: 334d 983c c5cb 373d b7f9 793d b125 9e3b
00000140: 03ad a53d 7afb 423d f356 133d 54ff 983c
00000150: 6d22 bcbb d730 b0bb 9ac0 023b 4c80 a73c
00000160: e961 023c 168c 903c 59a4 47bb 968a 00bd
00000170: 1fe5 0d3b 98f2 b13c e668 813d 4a4f 1a3c
00000180: 9185 8d3d 18a8 253d 4ea4 103c fcc7 4239
00000190: 644d 06bc 9c57 62bb 9041 9e3b be03 ecbb
000001a0: ee46 75ba d364 523d d7b9 193c 5ed2 b1bc
000001b0: 30aa fb39 dff3 f73c 8fbb 733d 3ff7 f93c
000001c0: ecb8 983d 86c0 803d 3a00 3b3b cd6d 93bc
000001d0: a9eb 073a 8685 4ebb 79ae dcbb e284 6cbc
000001e0: 2fab a4bc d468 a83c 179d 1d3c 9e2c 6dbc
000001f0: 8ecd e33b 0205 6d3c 2c2f 653d af41 263d
00000200: 795c bf3d 3d47 613d fb3f 19bc fb71 2abc
00000210: ba74 a03c 16f0 b13c 0454 4f3c 5db5 17bd
00000220: 86b9 2ebd 37bb 0e3c e1a8 92bb 2728 c3bc
00000230: 2ddd 0d3b 7403 c63c 5295 3e3d f6f9 b63c
00000240: 5b0f be3d 2f1c a73d 5b22 d03c 8616 313c
00000250: 00f6 ec3c 941f 1e3d f490 0339 ed4d 06bc
00000260: f28e 103c e361 0dbb dbb8 88bc 838f b1bc
00000270: b402 b73b 31d7 1d3d 3515 753d 22cc ef3c
00000280: f107 c83d c3f0 ad3d 24cb 1f3d d436 2c3d
00000290: 2925 023d 3998 003d 7d9f 383d a92a d93c
000002a0: d373 373c 9239 a63c 1d91 e93b 960c 76bc
000002b0: 197d 173d fea1 6a3d 8085 2f3d 9e31 9f3c
000002c0: 5be1 8c3d 4926 bf3d 423a b33c 8eae 1a3c
000002d0: 0435 ee3c 8cdd cf3c 3c3f 443d 4e48 063d
000002e0: 2341 b43c 3a10 873c fd58 833c 6a26 d2bc
000002f0: 342a 993c 034d 153d f504 a13d 256e 253d
00000300: adb2 413d 707a 983d 967a 973c fd0b 213d
00000310: 69b3 693c 60f3 263b ed4e 123d df89 443d
00000320: e11c ad3c a170 cf3c da39 adbb ebd8 46bc
00000330: e5a3 ef3c 9eef 3e3d b96a 363d 1600 0f3d
00000340: 4594 e33c bda8 343d 1125 14bd b52f d8bc
00000350: e039 3abc fbb3 e3bc 600c 45bd d88e a6bd
00000360: c5b1 05bd 15b8 a6bc 1f0b 7cbc 2060 a13c
00000370: 0a9c e93c 203c 2a3d 54fb 293d 0ed9 e83c
00000380: 95cc 353d 9b6c 513d 69f0 5d3d 6fa9 5e3c
00000390: 28cc 8d3c ba7d 6b3b c87d c5bb 4075 9cbc
000003a0: be7f f4bc d4b4 39bd 7e91 15bc b43d f13c
000003b0: afd7 ff3c cee8 7f3d c12d 833d cac1 0d3d
000003c0: 84d4 443c 49be 0a3d d85a 5c3d f844 903d
000003d0: 45d9 073e 07d0 e23d c73d 033e fad5 bf3d
000003e0: 0b46 9e3d 87ad b03d 5bd6 ca3d a33d c43d
000003f0: 263a 863d d014 8c3d 5a4a ea3c ca8c 853c
0.0055831275 -0.0014034342 0.039631993 0.06799076 0.072765276 0.08928357 0.080962524 0.11247217
0.074598975 0.08294453 0.06651175 0.04721595 0.027132645 0.049071826 -0.021685572 -0.0254522
0.0804402 0.094771415 0.06770324 0.05757726 0.049646497 0.063545965 0.056267586 0.07981494
0.05748286 0.049857985 0.04217867 0.053695418 0.066564955 0.10021904 0.041626055 -0.011468424
0.073845364 0.061276678 0.048582826 0.040686626 0.056125212 0.035266444 0.042690143 0.039789524
0.0005422194 0.018741906 0.019171685 0.022499884 0.038784582 0.05938042 0.07438144 -0.009053377
0.09085853 0.078702964 0.046865486 0.0446181 0.038692612 0.022665495 0.041981917 0.024478937
-0.020582607 -0.01033605 0.021484707 0.01093215 0.022117753 0.033779435 0.07254614 -0.006758887
0.08932714 0.06563006 0.01902559 0.03159874 0.010486977 0.012606008 0.020544546 0.0021711923
0.0037028403 -0.011708003 0.0008014326 -0.012445343 0.018591499 0.044872064 0.061029162 0.0048262705
0.0808964 0.047603108 0.035971593 0.018676437 -0.0057414086 -0.005376916 0.0019951225 0.020446919
0.007957914 0.017644923 -0.003046295 -0.031382166 0.002165146 0.021722123 0.06318836 0.009418318
0.069102414 0.04044351 0.008828236 0.00018575782 -0.008197162 -0.0034537083 0.004829593 -0.0072025945
-0.00093565776 0.051365685 0.009382687 -0.021706756 0.0004800125 0.030267654 0.05950504 0.030513404
0.07457146 0.06286721 0.002853407 -0.017996693 0.00051849574 -0.0031512692 -0.006734666 -0.014435979
-0.020101158 0.020557798 0.009619973 -0.01447597 0.0069519943 0.014466526 0.05595319 0.040589985
0.0934381 0.05499958 -0.009353633 -0.010403152 0.01958691 0.021720927 0.012654308 -0.037038196
-0.042657398 0.008711628 -0.0044756983 -0.023822857 0.0021646724 0.024171568 0.04652912 0.022335988
0.092802726 0.081596725 0.025407007 0.010808593 0.028925896 0.038604334 0.00012547133 -0.00819729
0.008823143 -0.0021573238 -0.016689708 -0.021674877 0.005585039 0.0385353 0.059834678 0.029272143
0.0976714 0.08493187 0.03901209 0.042044476 0.03177372 0.03139517 0.045073975 0.0265096
0.011197048 0.020291124 0.0071278946 -0.015017649 0.036984537 0.057283394 0.042851925 0.019432839
0.06878921 0.09333474 0.021878365 0.009441031 0.029078014 0.025374196 0.047911867 0.0327838
0.022003716 0.01648723 0.016033644 -0.025653083 0.018696882 0.036450397 0.078622736 0.040388245
0.04728954 0.07445228 0.01849107 0.039318074 0.014263966 0.0025474653 0.0357198 0.047983047
0.021131935 0.02532226 -0.0052864375 -0.012136678 0.029252956 0.046615236 0.044535372 0.03491219
0.027780661 0.044106234 -0.03616816 -0.026389936 -0.011366338 -0.027795782 -0.048107505 -0.08132714
-0.032640237 -0.020351449 -0.015383511 0.019699156 0.028516788 0.041561246 0.04149945 0.028423812
0.044384558 0.051128965 0.05418435 0.013590201 0.017309263 0.0035933093 -0.006026957 -0.019098878
-0.029846068 -0.045338467 -0.009128926 0.029448368 0.031230776 0.06247788 0.06405211 0.03460864
0.012013558 0.033872876 0.053797573 0.07044405 0.13266475 0.11074834 0.12816535 0.09366985
0.077282034 0.08626848 0.09904166 0.09582069 0.0655406 0.06839907 0.028599907 0.016302485

fc.bias f4 [2]
00000000: 1640 dc3b 4d10 cc3c
0.006721507 0.024910117
