runs/hybrid_best.pt (torch, 92557 bytes, 6 tensors)

conv1.weight f4 [16, 3, 3, 3]
0	0x3e162ae9	0.14664806
1	0x3e24c051	0.16088988
2	0xbd31753e	-0.0433247
3	0x3e36eef3	0.1786459
4	0xbd214af8	-0.039378136
5	0x3d290689	0.041265998
6	0xbdbaf185	-0.091280974
7	0x3deadb53	0.11467614
8	0x3e2f1b9e	0.17100379
9	0xbe111878	-0.1416949
10	0x3e2929ca	0.16519848
11	0x3d0ca59c	0.034337625
12	0x3e10570c	0.14095706
13	0x3cceb658	0.025233433
14	0x3dbbca73	0.091694735
15	0xbce645b6	-0.028109413
16	0x3e16046d	0.14650126
17	0x3ce748f2	0.028233025
18	0xbdba962b	-0.091106735
19	0x3d417582	0.047231205
20	0xbdb81f51	-0.08990348
21	0xbcbc6b37	-0.023000343
22	0xbda02d20	-0.07821107
23	0x3e01acb1	0.12663533
24	0xbe1b6690	-0.15175843
25	0xbdb60fef	-0.08889758
26	0xbd5f5c62	-0.054531462
27	0xbe035559	-0.12825526
28	0x3be04096	0.0068436367
29	0xbe50b881	-0.20382883
30	0x3e2605dd	0.16213174
31	0xbe36c2d3	-0.17847757
32	0x3e0bb2c8	0.13642418
33	0x3c966fd6	0.018363874
34	0xbd9e90a5	-0.077424325
35	0x3dd84c1a	0.1056139
36	0x3cb6207f	0.022232292
37	0x3e1865c0	0.14882565
38	0x3c5cb08f	0.013469829
39	0xbd90b4b9	-0.0706572
40	0x3d2f4b19	0.042796228
41	0xbd7db86e	-0.061943464
42	0x3d91f89d	0.07127497
43	0x3e26ba1e	0.16281936
44	0x3dd03e50	0.10168135
45	0xbdc627fc	-0.09675595
46	0x3dcd398d	0.100207426
47	0x3cbb6d16	0.022879165
48	0x3dae5dfa	0.08514018
49	0xbe06f5e8	-0.13179743
50	0xbe528a15	-0.20560487
51	0xbdb7220c	-0.08942041
52	0xbe274b02	-0.16337207
53	0x3e13fa60	0.14450979
54	0x3d357fc3	0.044311296
55	0x3d8d2737	0.06892245
56	0x3d4e93ba	0.05043385
57	0xbc812b33	-0.01576767
58	0x3e0e82c5	0.13917072
59	0xbe18add9	-0.14910068
60	0xb96bd644	-0.00022491167
61	0xbe147708	-0.14498532
62	0x3d3cf87c	0.04613541
63	0xbd9aedb5	-0.0756487
64	0x3d4d90c9	0.050186906
65	0xbd481ed9	-0.048857544
66	0x3e1a2e87	0.15056811
67	0xbdfe9739	-0.12431187
68	0xbdfebda6	-0.12438516
69	0xbe011090	-0.12603974
70	0x3e279109	0.1636392
71	0x3d593dd2	0.053037472
72	0x3e3a398f	0.1818602
73	0xbe2675cb	-0.16255872
74	0xbe45fd98	-0.1933502
75	0xbe1efc14	-0.15525848
76	0xbe098ce9	-0.13432659
77	0x3d97e1b7	0.074160986
78	0x3d846231	0.06464041
79	0x3e1f46bd	0.15554328
80	0xbdd6900e	-0.10476695
81	0xbe040255	-0.12891515
82	0x3de20729	0.11036522
83	0xbd983464	-0.07431868
84	0x3dfc523e	0.12320374
85	0xbd24282f	-0.040077385
86	0x3dfae5bd	0.1225085
87	0xbe0cd708	-0.13753903
88	0xbda6af35	-0.08138887
89	0x3da29181	0.07937909
90	0x3d8f4af3	0.06996717
91	0xbcb26827	-0.02177818
92	0x3e10e551	0.14149977
93	0x3e231435	0.15925677
94	0xbdd96bd4	-0.1061627
95	0xbd90649b	-0.07050439
96	0x3e5dd0e0	0.2166171
97	0xbc8441c9	-0.01614465
98	0xbc92ff75	-0.017944077
99	0xbe2fe823	-0.17178397
100	0xbdcbbdb1	-0.0994829
101	0x3d6a0158	0.057130188
102	0xbbe80060	-0.007080123
103	0xbdf148a6	-0.11781435
104	0x3cc210c1	0.02368963
105	0xbdd35819	-0.10319538
106	0xbe027d59	-0.12743129
107	0xbd9bf375	-0.07614795
108	0xbe512ff4	-0.20428449
109	0xbe20f948	-0.15720093
110	0x3e53b792	0.20675495
111	0x398651a6	0.00025619305
112	0x3cdc1e0f	0.026869802
113	0xbe56cb86	-0.20976076
114	0xbe2764d0	-0.1634705
115	0xbdc6ffbd	-0.09716747
116	0x3b02b138	0.0019942056
117	0xbe3fc293	-0.18726568
118	0xbdcd064b	-0.10010966
119	0xbdb97419	-0.09055347
120	0xbc9c6d18	-0.019094989
121	0xbdb80567	-0.089854054
122	0xbcdd3641	-0.02700341
123	0xbe1d148d	-0.15339871
124	0xbe1cf959	-0.15329494
125	0xbe04c84c	-0.12967032
126	0xbd97f4f9	-0.07419772
127	0xbe231864	-0.15927273
128	0x3e356902	0.17715839
129	0xbd43a031	-0.047760192
130	0x3e21dbfa	0.1580657
131	0x3d627720	0.055289388
132	0xbe33c8df	-0.17557095
133	0x3dffa7d3	0.12483182
134	0xbd79c95e	-0.060983054
135	0xbd85ebab	-0.06539091
136	0xbe1a5788	-0.15072453
137	0xbe3a5704	-0.18197256
138	0x3d8326e6	0.06403904
139	0xbd04fc98	-0.032467455
140	0x3dabb260	0.08383632
141	0xbe17b320	-0.14814425
142	0x3e19b799	0.15011443
143	0xbe06e3ea	-0.1317288
144	0xbcaaa7b7	-0.020831926
145	0x3d551bc6	0.05202844
146	0x3de2e011	0.110778935
147	0x3e2baed2	0.16765907
148	0x3e3ff27c	0.18744844
149	0xbe0d59b2	-0.13803747
150	0x3d778234	0.060426906
151	0xbd8f8443	-0.07007649
152	0xbc09dea6	-0.0084149
153	0xbe04e851	-0.12979247
154	0x3e401da6	0.1876131
155	0xbe0233e6	-0.1271511
156	0x3df011ff	0.117221825
157	0x3da8011b	0.08203336
158	0x3d9dca60	0.077046156
159	0xbdb70630	-0.08936727
160	0x3e407082	0.18792918
161	0x3d6659aa	0.056237854
162	0x3d0884a1	0.03332961
163	0xbe1e6f18	-0.15472066
164	0x3db5fa51	0.08885635
165	0xbd9ff417	-0.07810228
166	0xbe06cbda	-0.131637
167	0x3e081e1c	0.13292736
168	0xba8339ea	-0.0010011767
169	0xbe224505	-0.15846641
170	0xbe0f30a7	-0.13983403
171	0x3c40d798	0.011770152
172	0x3e02465f	0.12722157
173	0xbcccfad6	-0.025021952
174	0xbe0341e6	-0.12818107
175	0xbda31fbb	-0.079650365
176	0xbe1c6b67	-0.15275346
177	0x3d58734e	0.052844338
178	0x3e0ae416	0.1356357
179	0xbe4a7c30	-0.19773936
180	0x3d742652	0.059606858
181	0x3dea6ed0	0.11446917
182	0x3d4b1717	0.049582567
183	0xbdaad513	-0.08341422
184	0x3db975e4	0.09055689
185	0x3dc0ce7a	0.09414382
186	0x3d6822ee	0.056673937
187	0xbd4aeb5a	-0.049540855
188	0xbd81ad74	-0.06331912
189	0x3c8c975b	0.017162016
190	0xbd1ba94e	-0.03800326
191	0xbd74027a	-0.059572674
192	0x3dffd761	0.12492252
193	0x3e2c6875	0.16836722
194	0xbca27155	-0.019829432
195	0xbd36b9e7	-0.044610884
196	0x3b29fcee	0.0025938111
197	0xbc4660d7	-0.012108049
198	0x3d3be9e1	0.04587734
199	0x3d5d1e34	0.053983882
200	0xbe35aae4	-0.17740971
201	0xbd90de80	-0.070736885
202	0x3e2ac527	0.1667677
203	0x3d9fe3c8	0.07807118
204	0xbc0782c5	-0.008270924
205	0xbdf02f67	-0.11727791
206	0xbdf45e57	-0.119320564
207	0xbe2db58c	-0.16963786
208	0xbd6dfdec	-0.058103487
209	0x3d96f4bc	0.07370898
210	0x3e08ab7c	0.13346666
211	0x3dca6d3c	0.09884116
212	0xbe27dd06	-0.16392908
213	0xbddea4c2	-0.10871269
214	0xbcb84630	-0.022494406
215	0x3e4979ad	0.19675322
216	0x3d56eee0	0.052473903
217	0xbc8e0663	-0.01733703
218	0x3de1db32	0.11028136
219	0xbded8cd3	-0.11599126
220	0xbe2618b0	-0.16220355
221	0x3dd7ce3b	0.10537382
222	0xbe268a2d	-0.16263647
223	0xbde01e79	-0.10943312
224	0xbe8ac532	-0.27103573
225	0x3e27f221	0.16400959
226	0x3e3da492	0.1851981
227	0x3de3e84b	0.11128291
228	0xbe065680	-0.13118935
229	0xbe3616c6	-0.17782125
230	0xbe113e5e	-0.14183947
231	0x3e0022b0	0.12513232
232	0x3da73436	0.08164255
233	0x3e15e3b2	0.1463764
234	0x3e12964b	0.14315145
235	0x3dc76d27	0.09737616
236	0x3d43d8cf	0.047814187
237	0xbdfe98b7	-0.12431472
238	0xbe076d45	-0.13225277
239	0xbe1688a3	-0.1470056
240	0x3d9b5103	0.07583811
241	0xbdab447a	-0.0836267
242	0xbd05e393	-0.032687735
243	0xbe227835	-0.15866168
244	0xbdb37b54	-0.08763757
245	0xbe43ec9e	-0.19133231
246	0xbe29ae64	-0.16570431
247	0x3ca60160	0.020264328
248	0xbdd9ef69	-0.10641367
249	0x3dacdfd2	0.08441128
250	0xbdc5e018	-0.09661883
251	0xbe32dea0	-0.17467737
252	0xbc8e5c42	-0.017377976
253	0xbda0c965	-0.07850913
254	0xbd438bce	-0.04774075
255	0xbe24fcec	-0.16112107

conv1.bias f4 [16]
0	0xbdc07a24	-0.093982965
1	0x3df79bc8	0.1209026
2	0xbe1eb39e	-0.15498206
3	0x3e22b8b6	0.15890774
4	0xbdab2b90	-0.08357918
5	0xba3a6e2e	-0.0007111755
6	0xbcf89c58	-0.030347988
7	0x3d418be0	0.047252536
8	0xbd2c03d3	-0.041995835
9	0x3e1ff4f0	0.1562078
10	0x3d5da74a	0.054114617
11	0x3e24fc76	0.16111931
12	0x3e3ac5af	0.18239473
13	0xbda0e142	-0.078554645
14	0xbe156904	-0.14590842
15	0x3e36947c	0.1783008

conv2.weight f4 [32, 16, 3, 3]
0	0x3d9f7209	0.07785422
1	0xbd5e9f3d	-0.05435108
2	0xbb37ad5c	-0.0028026914
3	0xbd91e81a	-0.07124348
4	0xbd79ed13	-0.061017107
5	0x3c853cc3	0.016264325
6	0x3d05f9b2	0.03270883
7	0x3cdd0c2a	0.02698334
8	0xbcbb49b3	-0.022862291
9	0x3dafc4ed	0.085824825
10	0x3ca73121	0.020409169
11	0xbd2bc545	-0.041936178
12	0x3b96e6e6	0.004605162
13	0x3ceaea06	0.028676044
14	0x3d1536ec	0.03642933
15	0xbd4f9722	-0.05068124
16	0x3d1fae4a	0.038984574
17	0xbd13aaac	-0.036051437
18	0xbd93df24	-0.07220295
19	0xbd54df1d	-0.05197059
20	0x3d9fa5de	0.077953085
21	0x3d8e33b1	0.06943453
22	0x3d8b8571	0.06812561
23	0x3d29ce27	0.041456368
24	0x3d737775	0.059440095
25	0xbcb11ca4	-0.021620102
26	0xbd553583	-0.052052986
27	0x3ab46e56	0.0013765793
28	0xbd903089	-0.07040507
29	0xbd9d7ee3	-0.07690217
30	0xbd85dcc8	-0.06536251
31	0xbc2c6d40	-0.010524094
32	0x3cd1e2cd	0.025620842
33	0xbd8bb7e3	-0.06822183
34	0xbd9517c8	-0.072799265
35	0xbb58a520	-0.0033057407
36	0xbd31cd05	-0.043408412
37	0xbd345910	-0.04403025
38	0x3d5bc7f4	0.053657487
39	0xbcc35a09	-0.023846643
40	0x3d86476e	0.06556593
41	0x3db460de	0.088075384
42	0x3c8979bf	0.016781686
43	0x3c9ea45f	0.019365488
44	0x3cac0a50	0.021001011
45	0x3c8cffc0	0.017211795
46	0x3c266267	0.010155297
47	0x3c51d651	0.012807445
48	0x3d3e782e	0.04650133
49	0x3dbf3c5f	0.09337687
50	0xbbd84954	-0.0066005383
51	0xbcae3cc7	-0.021269215
52	0xbbbb0b71	-0.005708151
53	0xbcdda815	-0.027057687
54	0x3d4f003c	0.050537333
55	0x3dcbd2bf	0.09952306
56	0x3dcb7f92	0.099364415
57	0x3d83b53f	0.06431054
58	0xbd24b1ff	-0.040208813
59	0xbcb163b8	-0.021653995
60	0x3bed22fc	0.0072368365
61	0x3bc2dabe	0.0059464863
62	0x3ce76fb7	0.028251512
63	0xbdccc9b6	-0.09999411
64	0x3b56ffb9	0.0032806231
65	0xbdbdc296	-0.0926563
66	0xbd91271f	-0.0708754
67	0xbdb42f56	-0.08798091
68	0x3d51c634	0.05121441
69	0xbdc372e0	-0.09543395
70	0x3d40bdba	0.047055937
71	0xbcadf17d	-0.021233315
72	0x3d5fefb7	0.05467197
73	0x3de91eb7	0.113828115
74	0x3d77f869	0.060539637
75	0x3d9878bd	0.07444904
76	0x3da49177	0.08035558
77	0xbd49d1c3	-0.04927231
78	0x3d7940d8	0.060852855
79	0x3d428b0b	0.047495883
80	0x3d654ffa	0.055984475
81	0x3ceceff1	0.028923007
82	0x3d3b1e1a	0.045683004
83	0xbc947d1c	-0.018126063
84	0x3c54e205	0.01299334
85	0x3de68b09	0.112569876
86	0x3db6f8ab	0.089341484
87	0x3cae5e3e	0.021285173
88	0xbd32631a	-0.043551542
89	0x3d1c05d0	0.03809148
90	0xbdfbcf3b	-0.122953855
91	0x3c8f08db	0.017460277
92	0xbdd1c0a6	-0.10241823
93	0xbd9e5c76	-0.07732479
94	0xbd80510b	-0.06265458
95	0xbd179517	-0.037007418
96	0x3cb026e9	0.021502929
97	0xbd38d47a	-0.04512451
98	0xbbe01d79	-0.006839451
99	0x3d9e0ffa	0.07717891
100	0x3da2c7b5	0.07948247
101	0xbcb6239b	-0.022233775
102	0xbbe329f8	-0.0069324933
103	0x3d5306ad	0.05152004
104	0xbc8d4d04	-0.017248638
105	0x3d47afa0	0.048751473
106	0xbc0a911e	-0.00845745
107	0xbd5be338	-0.05368349
108	0x3ce49aaf	0.02790579
109	0x3c9cd3ab	0.0191439
110	0x3d61e90c	0.05515389
111	0x3da1433e	0.078741536
112	0x3d836afd	0.06416891
113	0x3dcead7d	0.10091684
114	0xba7cc4ae	-0.00096423447
115	0xbd7b11cc	-0.06129627
116	0xbd0b9563	-0.034078013
117	0xbd9f4578	-0.07776922
118	0xbdcaafae	-0.098967895
119	0xbd75cd56	-0.060010277
120	0xbdc821cb	-0.097720705
121	0xbdd3e0ad	-0.10345588
122	0xbd997621	-0.074932344
123	0xbdd374c5	-0.103250064
124	0xbd97df50	-0.0741564
125	0x3c33c2da	0.010971749
126	0x3d946c36	0.07247202
127	0xbd0410f2	-0.032242723
128	0xbd0c717f	-0.034287926
129	0x3d3f7f61	0.046752337
130	0xbd5a1bb2	-0.05324907
131	0xbd53b3a9	-0.05168501
132	0x3d56ddd5	0.05245765
133	0xbdb49777	-0.08817952
134	0xbbd5447f	-0.0065084095
135	0x3dba27d6	0.09089629
136	0x3d1b82c4	0.037966505
137	0x3d48f21a	0.04905901
138	0xbccf3aed	-0.025296653
139	0x3cef74ae	0.029230442
140	0x3d1c4305	0.038149852
141	0x3d33f50f	0.043934878
142	0x3d827dfc	0.06371686
143	0x3dda7239	0.106663175
144	0xbda6002d	-0.08105502
145	0xbc6dba92	-0.014509814
146	0xbd6e4c70	-0.058178365
147	0xbda4dd8e	-0.08050071
148	0xbcaa243e	-0.020769235
149	0xbdb23b23	-0.08702686
150	0x3d3cc688	0.04608777
151	0xbaf4c50f	-0.0018674451
152	0xbd64ccda	-0.055859424
153	0x3d0fd1d5	0.03511222
154	0xbdb17880	-0.08665562
155	0xbd247ead	-0.04015987
156	0xbcbf5821	-0.023357453
157	0xbd9f1f48	-0.07769638
158	0xbd7553cb	-0.059894364
159	0xbc9e9dc5	-0.01936234
160	0x3d6bbb6d	0.05755179
161	0x3d98fde2	0.07470299
162	0x3d5275be	0.05138182
163	0xbd6309c5	-0.05542924
164	0xbd6a6790	-0.05722767
165	0x3d93fafd	0.072256066
166	0x3ceba219	0.028763818
167	0xbb0f9892	-0.0021911007
168	0x3c6b39ce	0.014357043
169	0xbd825c8b	-0.063653074
170	0xbced77fe	-0.02898788
171	0x3da0595f	0.07829546
172	0xbce80cd5	-0.028326431
173	0xbc84d540	-0.016214967
174	0xbdb1cbc3	-0.086814426
175	0xbd847ed0	-0.064695
176	0xbcbf2bcc	-0.023336314
177	0xbd885b52	-0.06658043
178	0xbcd1d073	-0.025612092
179	0x3ca3eb13	0.020009553
180	0xbd7cf65d	-0.061758388
181	0x3d0b2494	0.03397043
182	0xbd5089c9	-0.050912652
183	0xbc8aa060	-0.016922176
184	0x3d60afc6	0.05485513
185	0x3daaabff	0.08333587
186	0xba79d5d6	-0.000953046
187	0xbc9d1c13	-0.019178426
188	0xbd4b1695	-0.049582083
189	0xbd2a7f73	-0.04162545
190	0xbd91d33e	-0.071203694
191	0xbc8de5d3	-0.017321503
192	0x3c9f4f59	0.019447016
193	0xbd9b2b95	-0.07576672
194	0x3d99c8c6	0.075089976
195	0x3d60c613	0.0548764
196	0xbda210b0	-0.07913339
197	0xbd194c11	-0.03742606
198	0x3da53e8c	0.080685705
199	0x3ce82d76	0.02834199
200	0x3cedc48f	0.02902439
201	0x3bfab32f	0.007650755
202	0x3ddd7c6a	0.10814746
203	0xbc5a8185	-0.013336544
204	0x3de20f76	0.11038105
205	0x3d1d8ec9	0.03846625
206	0x3d412ef3	0.047163915
207	0x3d9f0940	0.07765436
208	0x39813daa	0.0002465074
209	0xbd07b8dd	-0.033135284
210	0xbaf1e6ce	-0.0018455626
211	0x3da218f0	0.07914913
212	0xbd4c4e25	-0.049879212
213	0x3d04e90a	0.032448806
214	0xbd8a176c	-0.067427486
215	0x3d67b531	0.056569282
216	0x3d5782d4	0.052615
217	0x3cd58088	0.026062265
218	0x3d5b4133	0.053528976
219	0x3c862b54	0.016378082
220	0x3d7b4080	0.06134081
221	0xbd5cb649	-0.05388478
222	0x3a3bdd64	0.00071664737
223	0x3d5a43b7	0.053287234
224	0x3dc8d794	0.09806743
225	0x3d598e8c	0.05311446
226	0xbd507f23	-0.050902497
227	0x3d9adf36	0.07562105
228	0xbbd425ed	-0.0064742477
229	0xbbc9ee80	-0.0061624646
230	0xbd83949e	-0.06424831
231	0xbb48faa8	-0.003066698
232	0x3d8a458b	0.067515455
233	0x3cbfbd35	0.02340565
234	0xbdc6c8ad	-0.097062446
235	0xbcd48384	-0.025941618
236	0xbdafcbaf	-0.085837714
237	0x3d070b72	0.0329699
238	0xbdfc6ba3	-0.123252176
239	0xbdbae537	-0.091257505
240	0xbdef0017	-0.11669939
241	0xbdaf0091	-0.0854503
242	0xbd2bdc83	-0.041958343
243	0x3daab4ac	0.08335242
244	0x3c8d293c	0.017231576
245	0x3dae5d68	0.085139096
246	0x3ca500ad	0.020141924
247	0x3d54a563	0.051915538
248	0x3d910e90	0.07082856
249	0x3d97b99a	0.074084476
250	0xbd2ce469	-0.042210016
251	0x3da674be	0.081277356
252	0x3d076322	0.033053525
253	0xbd604cf6	-0.054760896
254	0xbd8b08e5	-0.06788806
255	0xbd842145	-0.06451658

conv2.bias f4 [32]
0	0xbd131ccb	-0.03591613
1	0x3cc634fa	0.024195183
2	0xbc3fb10f	-0.011699929
3	0xbd01b377	-0.03166529
4	0xbd198852	-0.03748352
5	0x3be32dfd	0.0069329725
6	0xbdaf57ac	-0.08561644
7	0x3dd3a565	0.10334281
8	0xbc80c1c7	-0.0157174
9	0x3cd4eebc	0.025992744
10	0x3c9d7609	0.019221323
11	0xbcec0012	-0.028808627
12	0x3d095c2d	0.03353517
13	0xbc779bc8	-0.015112825
14	0x3c89a51f	0.016802369
15	0xbd833239	-0.064060636
16	0xba9350e8	-0.0011239322
17	0x3c94fb2d	0.018186176
18	0x3c2a3c45	0.010390346
19	0x3bf42473	0.007450634
20	0x3da61d0d	0.0811101
21	0x3dc7179b	0.09721299
22	0x3d8c3ae0	0.06847167
23	0xbc55c7f0	-0.013048157
24	0x3cb1800c	0.021667503
25	0xbd98f0fc	-0.07467839
26	0xbda9f058	-0.08297795
27	0xbccecd6d	-0.025244439
28	0xbbd533b8	-0.0065064095
29	0xbd794dbf	-0.06086516
30	0xbd8873c2	-0.06662704
31	0x3d53219c	0.051545724

fc.weight f4 [2, 8192]
0	0x3c2417de	0.010015456
1	0xbaacd087	-0.0013184705
2	0x3c16291f	0.0091650775
3	0xbc3d5c44	-0.011557642
4	0x3c02dd90	0.007987395
5	0x3c3da9e4	0.01157615
6	0x3c014840	0.007890761
7	0x3cff929f	0.031197844
8	0x3cd818d0	0.026379019
9	0x3c37c045	0.011215274
10	0x3c9a7538	0.018854722
11	0x3bee24d8	0.0072675757
12	0x3c7f1390	0.015568629
13	0x3ca15436	0.019693475
14	0x3af3bc3f	0.001859553
15	0xbb3ad4a5	-0.0028508094
16	0x3d1b2330	0.037875354
17	0x3ca1eb39	0.019765483
18	0x3bcb59df	0.006205782
19	0x3b843099	0.0040341136
20	0x3b6114ab	0.0034344594
21	0xba57ff64	-0.0008239655
22	0x3a475bd2	0.000760493
23	0x3c105fd0	0.008811906
24	0x3c2dca6b	0.010607342
25	0xba07639e	-0.00051646854
26	0x3b90ad98	0.0044152252
27	0x3c41ca9c	0.011828091
28	0x3d021ff0	0.03176874
29	0x3d2361c3	0.039888155
30	0x3c450f5d	0.012027589
31	0xbb84c4fc	-0.0040518027
32	0x3caca84c	0.021076344
33	0xb9cebfd0	-0.00039434293
34	0xbbdcf2bf	-0.006742805
35	0xbb3c4735	-0.0028728966
36	0x3b95797b	0.0045616007
37	0xbc040304	-0.00805736
38	0xbbb02791	-0.0053758104
39	0xbabd2af0	-0.0014432352
40	0xbc616b62	-0.013758512
41	0xbad42a1f	-0.001618687
42	0xbbfd3bdc	-0.007728083
43	0xbc02cef7	-0.007983915
44	0x3c8d096e	0.01721641
45	0x3c640c1a	0.013918901
46	0x3d0db765	0.034598727
47	0xbb0efa91	-0.002181683
48	0x3cadc977	0.02121423
49	0x3c88c41a	0.016695071
50	0x3be790c7	0.0070668194
51	0x3c536fd7	0.012905083
52	0x3bb4317a	0.005499062
53	0xbc26a0bc	-0.010170158
54	0x3bb9ea6b	0.0056736968
55	0xbbb40acd	-0.0054944516
56	0xbbee445c	-0.0072713327
57	0xbc2248de	-0.009905068
58	0x3b78a63e	0.0037940885
59	0x3bfa78ae	0.0076437807
60	0x3cb6d815	0.022319833
61	0x3cba570b	0.022746583
62	0x3d0a258b	0.03372721
63	0xbc5e2524	-0.01355866
64	0x3cb2a243	0.021805888
65	0x3c93d6bb	0.018046727
66	0x3b858dbf	0.0040757353
67	0x3c2326a8	0.009957947
68	0x3bbfddbd	0.0058552907
69	0x398f69e5	0.00027353983
70	0x3a5b0b45	0.00083558663
71	0xbc57dd6a	-0.013175348
72	0xbc07d83e	-0.008291302
73	0xbc88fe51	-0.01672283
74	0xbc1cdd60	-0.009574264
75	0xba9d2689	-0.0011989634
76	0x3c93bd50	0.018034607
77	0x3d05cac1	0.032664064
78	0x3c431fb1	0.011909411
79	0xbc10aad3	-0.00882979
80	0x3d0c476a	0.034247793
81	0x3c65367f	0.013990044
82	0x3c3db08c	0.011577737
83	0x3c10e775	0.008844246
84	0x3bf65952	0.007517972
85	0xbc03f31a	-0.008053565
86	0xba2f093e	-0.00066770974
87	0xbb2cba4e	-0.0026356163
88	0xbae810b5	-0.0017705174
89	0xbc0627bd	-0.008188185
90	0xbaed972a	-0.0018126715
91	0xbba8304e	-0.0051327115
92	0x3c68c48d	0.014207018
93	0x3cdbaf08	0.02681686
94	0x3cf183f7	0.029481871
95	0xbbf050a9	-0.007333834
96	0x3cd189c8	0.025578395
97	0x3c1cbd61	0.009566636
98	0xbaeba33c	-0.0017977725
99	0x3bae52d4	0.0053199325
100	0x3b99093e	0.004670291
101	0x3ade5217	0.001696172
102	0xba730e5b	-0.00092718535
103	0xbc379645	-0.011205261
104	0xbc27fa20	-0.010252506
105	0x3c1799b6	0.009252956
106	0xbc35692a	-0.011072436
107	0x3bab4c00	0.0052275658
108	0x3cdf94de	0.027292665
109	0x3d151e30	0.036405742
110	0x3c8106dd	0.015750343
111	0x3c41ed8f	0.011836424
112	0x3c043af6	0.008070698
113	0x3c97225d	0.018449003
114	0x3c27bdd4	0.01023813
115	0x3a8eca9e	0.0010894125
116	0x3b6b7c31	0.0035932178
117	0xbc93bcf5	-0.018034438
118	0xbcb07700	-0.021541119
119	0xbcdec8ef	-0.027195422
120	0xbcc2b8f2	-0.02376983
121	0xbbc38324	-0.005966561
122	0x3aae44a7	0.0013295606
123	0x3b6b70b1	0.0035925324
124	0x3cf70fbf	0.030158876
125	0x3cabb651	0.020960959
126	0x3ce6a155	0.028153101
127	0x3c7c8510	0.015412584
128	0x3d06f8d8	0.03295216
129	0x3c403b7e	0.011732934
130	0xbaa1a7ee	-0.0012333372
131	0xbae82a89	-0.0017712872
132	0x3c194f4a	0.009357283
133	0xbc53f346	-0.012936419
134	0xbc50221c	-0.012703445
135	0xbd0a01cd	-0.033693124
136	0xbcd47520	-0.025934756
137	0xbc6f7ba5	-0.0146168815
138	0xbb1a715a	-0.0023566098
139	0x3a443f80	0.0007486269
140	0x3d055640	0.032552958
141	0x3cfb3d45	0.030668864
142	0x3c89790f	0.016781358
143	0x3c3a41a0	0.011368185
144	0x3cbba497	0.022905631
145	0x3c89cf5c	0.01682251
146	0x3c40ae98	0.011760376
147	0x3c9b7a52	0.018979225
148	0x3c78e24f	0.015190675
149	0x3b3f98f9	0.0029235466
150	0xbc8b6d3d	-0.017019862
151	0xbc943976	-0.018093806
152	0x3a4b74e6	0.00077612547
153	0xbc85e9fd	-0.016346926
154	0xbb5b76b1	-0.0033487494
155	0x3c5e3f63	0.013564917
156	0x3ce0f515	0.027460614
157	0x3ce32287	0.027726425
158	0x3d1a259c	0.037633523
159	0x3bf1d360	0.007379934
160	0x3d20d2bc	0.039263472
161	0x3d10fba6	0.03539624
162	0x3cd3c2e3	0.025849765
163	0x3cb47b5e	0.022031482
164	0x3cb87c1f	0.022520123
165	0x3c393295	0.011303564
166	0x3c736bd7	0.014857254
167	0x3c1ac8aa	0.009447256
168	0xbb8c9c3f	-0.004291087
169	0xbaacd538	-0.0013186103
170	0xb9762331	-0.00023473498
171	0x3be0df41	0.0068625514
172	0x3d2ebf12	0.042662688
173	0x3cf592eb	0.029977283
174	0x3cc113e3	0.023569053
175	0xbb115876	-0.002217797
176	0x3d17a0d1	0.0370186
177	0x3d080f57	0.033217754
178	0x3cb6b2bf	0.02230203
179	0x3c0bbfd0	0.008529618
180	0x3cb31d5a	0.021864582
181	0x3c18e33b	0.00933152
182	0x3c99c5ba	0.018771041
183	0x3cab4e33	0.020911312
184	0x3a9a2546	0.0011760376
185	0x3b349df8	0.0027559977
186	0x3c6b7a4c	0.01437242
187	0x3bdd457a	0.006752667
188	0x3cbe57cb	0.023235222
189	0x3cd61058	0.02613084
190	0x3d1cef91	0.038314406
191	0x3c6a92c8	0.014317222
192	0x3d19959e	0.0374962
193	0x3d10c067	0.03533974
194	0x3d0079fc	0.031366333
195	0x3cc88e80	0.024482012
196	0x3c330497	0.010926387
197	0x3c8c41fc	0.017121308
198	0x3cb2c4f6	0.021822434
199	0x3c95475a	0.0182225
200	0x3bac9af1	0.005267494
201	0x3ca830c8	0.020531073
202	0x3bb37dc7	0.0054776403
203	0x3c911fb2	0.017715309
204	0x3d221301	0.039568905
205	0x3d292dbb	0.041303378
206	0x3caf8494	0.021425523
207	0x3c772291	0.015083925
208	0x3d0a5bee	0.033779077
209	0x3d0689c5	0.03284623
210	0x3c4247ae	0.01185791
211	0x3c732012	0.014839189
212	0x3c95ca80	0.018285036
213	0x3c5ea1a3	0.013588342
214	0x3bf47696	0.0074604256
215	0xbb071a99	-0.0020615219
216	0x3b9b07a6	0.0047311364
217	0x3c7fa7b2	0.0156039465
218	0x3ca1a588	0.019732252
219	0x3d11805a	0.035522796
220	0x3d02c16d	0.031922746
221	0x3d1fd870	0.03902477
222	0x3d09acbe	0.033612005
223	0x3c1de626	0.009637391
224	0x3cdc2c8a	0.026876707
225	0x3cd9b4f6	0.026575547
226	0x3cf86006	0.030319225
227	0x3cab6566	0.020922374
228	0x3ccee1ec	0.025254212
229	0x3c26de14	0.0101847835
230	0x3a562428	0.000816884
231	0x3a791152	0.0009501177
232	0x3c0e9b53	0.008704024
233	0xba4af9e8	-0.00077429274
234	0x3c91e1df	0.017807899
235	0x3d295aaf	0.04134625
236	0x3cf82ed0	0.03029576
237	0x3d382880	0.0449605
238	0x3cbe1195	0.023201743
239	0x3c08a439	0.008339935
240	0x3c99c196	0.018769067
241	0x3c9c2bf1	0.019063922
242	0x3cf82686	0.030291807
243	0x3d12e80c	0.03586583
244	0x3d627912	0.055291243
245	0x3d180699	0.037115667
246	0x3d1d782f	0.038444694
247	0x3c310eea	0.010806778
248	0x3ca9a731	0.020709606
249	0x3d1a445c	0.03766285
250	0x3d33005a	0.043701507
251	0x3d1eab91	0.038737837
252	0x3d0b99a2	0.034082063
253	0x3d131e77	0.035917725
254	0x3cc26596	0.02373008
255	0x3caba2a5	0.020951578

fc.bias f4 [2]
0	0xb989974a	-0.00026243395
1	0x3cb81d8d	0.022475028
